models/best.pt (torch, 242690 bytes, 12 tensors)

lstm.weight_ih_l0 f4 [256, 34]
000000 cc ef d4 3d 69 69 0f 3e fc a1 e2 bc e7 ea 7b bb
       0.103973 0.14005055 -0.02766513 -0.0038439573
000010 b8 b4 ee bd eb bd 21 3b 7b 90 d2 bd 48 df f4 3d
       -0.11655563 0.002467985 -0.10281464 0.1195665
000020 75 4e d4 3d d1 b6 89 bd c3 64 32 bb a2 96 96 bd
       0.10366527 -0.067243226 -0.0027220703 -0.0735295
000030 d8 a8 9d 3d 17 9b 7b 3d 74 99 48 bd a7 28 ef bd
       0.0769822 0.061427202 -0.04897447 -0.11677676
000040 70 c5 9f 3d 08 98 94 3d d6 a4 48 be 83 fe 8b bd
       0.0780133 0.0725556 -0.1959413 -0.06835654
000050 80 9d 83 bd bf 01 bb 3c ca 45 1a be b6 a0 a1 bc
       -0.06426525 0.022827981 -0.15065685 -0.019729953
000060 4c e4 d2 bd 0c ba 0c bd 2f 38 20 be 42 72 2e be
       -0.102974504 -0.034357116 -0.15646432 -0.17035773
000070 db 38 35 3a 5d 39 ac bd cf 7a 1b bd f4 dd 56 be
       0.0006913074 -0.08409379 -0.037958916 -0.20983106
000080 61 03 45 3e 03 18 c0 be b4 d8 65 bd b7 dd 75 3d
       0.1923957 -0.3751832 -0.056114867 0.060025897
000090 27 25 49 3d 69 f9 a5 3d 4e bc 05 bb 2b 56 6c bd
       0.049107697 0.08104212 -0.0020406428 -0.057699364
0000a0 27 5f b1 3c 2a 5c aa bd 04 f2 35 3d 75 8f 0b 3e
       0.021651817 -0.0831836 0.044420257 0.13628943
0000b0 e4 3e 90 3d 21 b0 82 bd c3 f2 8f 3d e1 bd 3e 3d
       0.070432454 -0.0638125 0.07028725 0.0465678
0000c0 c4 3f 66 3d fa 0c ab bd 7d eb f9 bd ce d2 ba bc
       0.056213155 -0.083520845 -0.12203119 -0.022805598
0000d0 d5 23 b9 bd eb ef c5 3d 7d 30 bf 3c fd 64 cf 3d
       -0.090400375 0.09664901 0.02333855 0.10126684
0000e0 d2 89 3a 3d c6 1d e4 b9 cf 5a b7 3d bb 0d 80 bd
       0.045541592 -0.00043509732 0.08952867 -0.06252619
0000f0 c4 f2 4e bb d9 f5 c4 bd 93 62 12 3d 9b 18 6f bc
       -0.0031577805 -0.09617204 0.03573854 -0.014593269
000100 d6 e7 2f 3d ac 9f 01 bd fa f0 7a 3c df da d4 3d
       0.042945705 -0.031646416 0.015316242 0.10393309
000110 ca 00 04 be 59 03 34 be 5b de a4 3d 1a db be 3d
       -0.12890926 -0.17579402 0.080502234 0.09319134
000120 23 98 02 3e e3 82 0e bd b4 59 95 bd d2 6d ae bd
       0.12753348 -0.034792792 -0.072925 -0.0851704
000130 63 2b 2e be 06 1b ab 3d 58 32 f5 3d 9f d3 c4 3d
       -0.17008738 0.08354764 0.11972493 0.09610676
000140 ee d7 32 be 55 9f 2a bd e8 2b 19 3e 9d e1 7d bd
       -0.17465183 -0.041655857 0.14958155 -0.06198274
000150 c9 08 40 bd b8 c0 13 bc 0c 2d 3c 3e 71 69 da bd
       -0.04688338 -0.009018116 0.18376559 -0.106646426
000160 80 b1 2b be 50 40 4e 3d c1 9b 31 3c b4 ae a8 bd
       -0.1676693 0.050354302 0.010840357 -0.08236447
000170 ee a1 13 bc 58 82 d0 3d 17 07 4c bc 7f be 90 bd
       -0.009010775 0.10181111 -0.012452862 -0.07067584
000180 dc ff 80 3b c3 36 ad bc 2f 78 da 3c 86 18 11 be
       0.003936751 -0.021144276 0.026668636 -0.14169511
000190 37 7c 58 3d ff eb 5e bd 3f 8e d1 bc f2 08 ce bd
       0.052852836 -0.054424282 -0.025580524 -0.100603
0001a0 bd 55 d0 3c 40 21 8e bd 46 0d 0e be 22 65 90 bd
       0.025431508 -0.06939936 -0.13872251 -0.070505396
0001b0 f5 7c cf bd d5 eb 2f bd 0b 74 e7 3d 74 ed 6a 3d
       -0.101312555 -0.042949516 0.1130143 0.05735536
0001c0 81 15 0f 3d a8 1b 21 be 9c 58 c2 bd 04 f0 de 3b
       0.034932617 -0.15733206 -0.09489557 0.0068035144
0001d0 02 c8 5c 3c e6 47 1c be 2f 68 8d bd 17 e5 49 bd
       0.01347542 -0.15261802 -0.06904637 -0.049290743
0001e0 aa a1 c7 bb a1 28 b5 bd 31 6e ca bc 72 7a a8 bd
       -0.00609227 -0.0884564 -0.024710746 -0.082264796
0001f0 be e7 e5 bd 41 70 d3 bd 9a 81 5d bd cb c8 80 bd
       -0.11225842 -0.10324145 -0.054078676 -0.06288298
000200 6a ec d5 3d 35 a6 82 bd 29 29 bf 3d 37 94 5f 3d
       0.10445483 -0.06379358 0.093340226 0.054584708
000210 8c af 04 be bd 54 45 3d f6 5f c6 bd dc ee 8d 3c
       -0.12957591 0.048176516 -0.09686272 0.017325811
000220 8b c3 22 be 43 6a 4a be 66 9f 48 bd 01 5a 5b bd
       -0.15894906 -0.19767098 -0.04898014 -0.05355263
000230 2e 79 1f bd 95 d2 cf bd 90 b6 f5 3d 04 16 32 be
       -0.038933925 -0.10147587 0.11997712 -0.17391211
000240 23 c2 b9 bd 5e fe 89 3d 7b c5 05 3e d9 ea 45 3c
       -0.09070232 0.0673797 0.13063614 0.012079918
000250 d0 de 21 3d 18 c7 47 bd 77 9e 31 3e 79 92 f9 bd
       0.03951913 -0.048773855 0.17345606 -0.121861406
000260 1e aa bc bd 7a 73 9a bd 2c 12 7d 3e ce d8 11 be
       -0.09212135 -0.07541557 0.24713963 -0.1424286
000270 2a 07 84 bb 53 d8 ba bc a6 22 a5 3d 58 81 ae bd
       -0.0040291743 -0.02280823 0.08063249 -0.08520764
000280 cc eb 40 3d 04 a0 fe 3c 74 33 c4 3d c0 e0 45 be
       0.047099873 0.03108216 0.095801264 -0.19324017
000290 b7 d5 b5 bc 8e 7f fc bc c2 48 76 3d 69 85 16 3d
       -0.022196634 -0.030822542 0.06012798 0.036748324
0002a0 37 5b c8 bd e7 94 45 3c 37 24 79 bd 3e 8e d4 3a
       -0.09783023 0.012059427 -0.060825553 0.0016216708
0002b0 6b ea aa 3d 58 98 4a bd ea 26 9d bd 1c b3 72 bd
       0.08345493 -0.049461693 -0.07673438 -0.059252843
0002c0 29 19 da bd c5 5d 32 3d 84 56 cb 3d 80 33 d9 bd
       -0.1064933 0.043546457 0.09928611 -0.10605526
0002d0 66 67 a0 3c 70 5f 7d 3d 33 a5 c7 3c 4f 28 d3 bc
       0.019580554 0.061858594 0.024370765 -0.025776057
0002e0 ff e6 9d 3d 72 10 8c 3d a6 9a 46 3d 1e 43 29 3c
       0.07710075 0.06839074 0.048487328 0.010330943
0002f0 54 9c c1 bc 76 c1 7e 3c 51 47 99 bc 92 de 87 bc
       -0.023634113 0.015549054 -0.018710764 -0.016585622
000300 2b 32 a6 3d 51 8b da 3d 53 88 26 bc 0b ac 57 bc
       0.081150375 0.10671104 -0.010164338 -0.013163577
000310 f1 e1 9a bb 19 13 18 bc 81 52 03 3d ef 2d 6e 3d
       -0.0047266413 -0.009281897 0.032061104 0.058149274
000320 9f 5d f7 bd f0 a5 42 bd 26 c3 99 3d 93 52 48 3d
       -0.12078404 -0.04752153 0.07507925 0.048906874
000330 33 30 2f 3d e2 eb 7e bc 7b 14 93 bd 57 a0 fe bd
       0.042770576 -0.0155591685 -0.07181641 -0.12432926
000340 c6 17 23 bd 15 30 e0 3c 63 73 7b 3d db 75 e7 3d
       -0.039817594 0.027366677 0.06138934 0.11301776
000350 12 6d 7a bd 50 fd a0 bd 93 2a 8d bc 53 c1 08 3e
       -0.061139174 -0.078608155 -0.017232215 0.13354997
000360 c3 5c 84 3d cf 4c 1f bd 04 5a 95 3d 4c 50 fc bc
       0.064630054 -0.03889161 0.0729256 -0.030800007
000370 21 f8 fc bc 06 20 9f 3d a1 d9 31 bd 9f b2 40 bc
       -0.030880036 0.0776978 -0.043420438 -0.011761337
000380 80 75 27 bd ce 3e b2 3c b0 64 16 3e 35 2b c0 3d
       -0.04088354 0.021758463 0.14686847 0.09383241
000390 ee 56 1e bd ba b3 ff bd 0e aa d1 bd c6 c2 d2 3d
       -0.03865712 -0.12485452 -0.102375135 0.10291056
0003a0 f5 23 f4 3d b7 ac ab 3d 1c a5 8b 3d cd b5 4a 3d
       0.11920921 0.08382552 0.068186015 0.049489785
0003b0 6b b5 d5 b9 87 1c f0 bd e3 c4 19 be a2 71 83 be
       -0.00040761693 -0.11724191 -0.15016513 -0.25672632
0003c0 07 4e 82 3c 59 09 82 bd fd 6a ec 39 d8 6c f3 bc
       0.015906347 -0.06349439 0.0004509314 -0.029714987
0003d0 a2 fd d6 3c 92 05 37 be 64 a1 ed bd 9a 2e 08 bb
       0.026243988 -0.17873219 -0.116030484 -0.002077973
0003e0 99 a5 38 bd 48 62 e0 3d 95 32 93 bd d7 19 0d be
       -0.0450798 0.10956246 -0.07187382 -0.13779388
0003f0 9a e5 95 bc 90 b7 b0 bc 4b a7 98 bd b6 6f 24 be
       -0.01829796 -0.021571904 -0.074537836 -0.1605824

lstm.weight_hh_l0 f4 [256, 64]
000000 0b 90 03 be 3b ff 58 bd d2 b9 8f bd 98 51 da 3d
       -0.12847917 -0.05297778 -0.07017864 0.10660094
000010 dd 80 d8 bc bf 24 40 bd 40 28 7c 3d 42 5b 36 3a
       -0.026428634 -0.046910044 0.061561823 0.00069563475
000020 66 ba 75 3d a4 7a d6 3d 34 39 9d 3a 0d a4 55 3c
       0.059992217 0.104726106 0.0011995197 0.013039601
000030 58 88 67 be d4 94 8c bd 48 0f a8 bd 28 82 92 3d
       -0.22610605 -0.06864324 -0.0820604 0.071537316
000040 80 3c 14 3c 56 fb 45 bd e7 dc 6e 3d cd 4a a1 3d
       0.009047627 -0.048335396 0.058316138 0.07875595
000050 7f 3b 2b bc 90 c2 6d bc 9c 62 1c 3e 31 64 aa bc
       -0.010451197 -0.014511719 0.15271991 -0.020799728
000060 3e 77 ae bd cc f8 d3 bd 1b fd c3 3d e6 7b bc 3d
       -0.085188374 -0.103501886 0.095697604 0.09203319
000070 b9 6a 06 3d d4 a0 1f be a3 f8 63 bd 3d 5c fb bd
       0.032816622 -0.15588695 -0.05565704 -0.122734524
000080 ab e2 95 3d 86 01 47 bc cf 51 a3 bd d3 23 b7 bd
       0.07318624 -0.012146359 -0.07974588 -0.0894238
000090 13 6e d5 3d 65 52 60 bd 4c 52 1d 3e 80 50 94 bd
       0.104213856 -0.054766078 0.15363425 -0.07241917
0000a0 5c c0 9b bd 26 ae 53 bb 77 42 08 3e 81 ea 4b 3d
       -0.07605049 -0.0032299845 0.13306604 0.049784187
0000b0 93 fe a3 3d ca 4f 45 3d b5 e9 e2 3c e3 27 68 bd
       0.080075406 0.048171796 0.02769933 -0.056678664
0000c0 22 94 c3 3d 77 7e 01 bc 94 23 1d 3d 20 e6 ba 3d
       0.095497385 -0.007903687 0.038364008 0.09125924
0000d0 5c 0e 30 bd d8 8b 4f bd 2a ee b5 3d 02 dd 0c 3e
       -0.042982444 -0.050670475 0.08883317 0.13756183
0000e0 fb 07 26 3d 4c 77 dc bb b0 d3 54 bd 1c 73 1e bd
       0.040534955 -0.0067280885 -0.051959693 -0.038683996
0000f0 51 dc 24 3d e5 44 d6 bd 06 9d 75 3d fa 27 82 ba
       0.040249173 -0.10462359 0.059964202 -0.0009930127
000100 74 fd 6d 3d 40 23 e1 3c 8e 82 97 3d 93 4a b4 bd
       0.05810304 0.027482629 0.07397948 -0.088032864
000110 06 c2 a6 3d e7 78 c2 bd 86 e3 89 bc 22 a5 cf 3d
       0.08142476 -0.094957165 -0.016832124 0.101389185
000120 9e 41 24 be ce 99 fc bd 09 84 be bd e7 a9 8f 3c
       -0.16040656 -0.123340234 -0.093025275 0.01753707
000130 05 75 56 3b de f0 c5 bd ac eb b5 bc c2 c1 83 bd
       0.0032723558 -0.096650824 -0.022207104 -0.06433441
000140 44 c4 b8 bd 4b ca 73 ba 58 72 ff 3c 03 5f 08 3c
       -0.0902181 -0.00092998584 0.031182453 0.008323434
000150 60 09 70 bd e0 68 a8 3d 61 fb ab 3b 15 a4 c7 bc
       -0.05860269 0.08223128 0.0052484726 -0.024370233
000160 e7 13 dc 3d 9e ac 01 3c a2 7f 44 3d f9 46 b3 3d
       0.107459836 0.00791469 0.047973283 0.08753771
000170 1b b2 56 3c bf a6 ce 3d c9 75 c1 3a 09 65 c7 3d
       0.013103987 0.10090398 0.0014759834 0.09736068
000180 ed c5 f8 3c 46 a2 72 3d 0c 89 98 3d 9d bd 7b bd
       0.030367816 0.059236787 0.074480146 -0.061460126
000190 42 d8 f1 3d 26 be cf 3c a4 11 99 3c ef 3e b2 bd
       0.11808826 0.025359225 0.01868517 -0.0870341
0001a0 26 15 31 bc 78 25 a8 3d 46 ba 9f bd ec 0e 22 3d
       -0.010808265 0.082102716 -0.07799201 0.03956501
0001b0 cf ed de 3d 8b a2 10 be d4 2f 8f bc 77 fa 1e 3d
       0.10885202 -0.14124505 -0.01747886 0.03881308
0001c0 55 d4 a5 3d 0e 44 2b bd ba 4a f9 bd 4a ee a0 bd
       0.0809714 -0.04181295 -0.12172456 -0.0785795
0001d0 af 41 01 3c 45 36 c5 bd ca 02 1f be 0b 65 22 bb
       0.007889195 -0.09629492 -0.15528408 -0.0024779465
0001e0 26 c0 81 3d ad 82 9b bd 42 32 3e bd 90 4c 53 3d
       0.063354775 -0.07593284 -0.04643465 0.051586688
0001f0 6f 54 b8 bd d3 8b c6 bd b3 27 1a bd fc 88 00 3e
       -0.090004794 -0.09694638 -0.037635516 0.12552255
000200 e4 c5 f0 3c ec 1a 3d be 46 9f a8 bd aa 07 75 3d
       0.029391237 -0.18467301 -0.08233504 0.059821762
000210 65 b2 af 3d fe c9 14 3e 66 b2 9d 3c 27 cb 31 be
       0.08578948 0.14530179 0.019250106 -0.17362653
000220 4e 11 cf bd 4d 9c 81 bc 15 45 bc 3d 02 25 fd 3d
       -0.101107225 -0.0158216 0.09192864 0.12360574
000230 d3 b9 7e bd 17 3e 00 3e 9c b0 b7 bb b0 71 70 bd
       -0.062188935 0.12523685 -0.0056057703 -0.05870217
000240 a4 4c b4 3b 35 71 ef bd 05 12 08 3d 5b 9a 25 3b
       0.0055023003 -0.116915144 0.03322031 0.0025269005
000250 9e f0 a8 3d ce db 9a bd 7c b4 cf 3d 2e 36 e2 bb
       0.08249019 -0.07561456 0.101418465 -0.0069034314
000260 08 01 01 3d 29 23 15 be c6 75 fc bd 58 2d d6 bd
       0.031495124 -0.14564194 -0.12327151 -0.104578674
000270 54 f2 8a bd 99 88 61 3d bc ca 0a be 5a 70 a4 3b
       -0.06784502 0.05506191 -0.135539 0.005018276
000280 18 65 19 3e 24 64 43 3e d5 b0 0d bd b2 58 78 bd
       0.1497997 0.1908117 -0.03459247 -0.06063146
000290 f8 d8 16 3e c3 23 18 3e 2a 61 23 3e f2 f2 64 3b
       0.14731205 0.14857392 0.15955034 0.0034934846
0002a0 72 d1 07 3e 59 7f 0c 3e a9 cb 0f be dd 4e 80 bd
       0.13263491 0.13720454 -0.14042534 -0.06265042
0002b0 b2 67 20 bd 11 f3 05 be f6 45 36 bd 58 ef 84 3d
       -0.03916139 -0.13081004 -0.044500314 0.06490964
0002c0 e5 ab 24 bd 25 be 23 be 6b ff 07 3e c0 4f 4b 3d
       -0.040202994 -0.15990503 0.13281028 0.049636602
0002d0 3f 10 90 bd d0 a7 5b 3d 5f d6 04 bd ac 54 a3 bd
       -0.07034349 0.053626835 -0.032431003 -0.07975134
0002e0 b9 09 a0 bc d2 50 8a 3c 30 7c af bd 1c dc b9 bc
       -0.019535886 0.016884241 -0.08568609 -0.022687964
0002f0 84 a0 0e be 89 92 7b bb d6 b7 cd 3d bf d4 f6 3d
       -0.1392842 -0.0038386902 0.100448295 0.12052297
000300 06 fc 8e 3a d0 a6 50 bb 13 62 66 bd eb 87 94 3d
       0.0010908849 -0.003183771 -0.056245875 0.07252487
000310 3c e7 8f bb c5 a1 96 bd af da db bd e0 ff 86 bc
       -0.004391579 -0.07355074 -0.1073507 -0.016479433
000320 5d fe dd bd 9c e3 3c bb 9d 88 00 3e 61 97 ec 3b
       -0.108395316 -0.002882219 0.12552114 0.007220194
000330 a6 0e d3 3d f9 77 82 bc a1 80 5e bd bd d6 06 be
       0.10305528 -0.015926348 -0.05432189 -0.13167854
000340 07 6e ab bd e3 cf bd 3d d8 85 04 3d cd 5a e5 3d
       -0.083705954 0.09268167 0.032354206 0.111989595
000350 48 35 43 3c bb fe 18 3d 27 01 38 bd 92 45 0d 3e
       0.011914559 0.037352305 -0.044922974 0.1379607
000360 ee 12 af bd b9 67 3c bd cf 01 0a be 7b 66 00 3c
       -0.085485324 -0.045997355 -0.13477252 0.007836933
000370 b4 f4 3d be 82 4b 75 bd 03 ad 4b 3d b0 b4 e1 3d
       -0.18550378 -0.059886463 0.049725544 0.110207915
000380 df 73 15 3e 9c 52 a6 3d 7f f5 ae bc 5d fa 0b 3d
       0.14594983 0.08121225 -0.021357296 0.034174312
000390 71 f3 da bd 25 f6 50 3d 75 d9 93 3d ab 05 14 3e
       -0.10690964 0.05101599 0.07219211 0.14455287
0003a0 0b 56 06 be ab f9 f7 bc 25 fc c4 bd ec d7 aa bd
       -0.1311876 -0.030270418 -0.09618405 -0.08341965
0003b0 81 6a 95 bd f5 3d 3f 3d 4f ef 67 3d 66 21 a9 3d
       -0.07295705 0.046689946 0.056624707 0.08258323
0003c0 30 81 38 3c cf ca 71 3d 22 96 eb 3d 99 19 88 3a
       0.011261269 0.059031304 0.11503245 0.0010383605
0003d0 ba 3a fa bc 95 36 c1 bd b8 2d 16 3e f0 f0 13 bd
       -0.030545581 -0.09434239 0.14665878 -0.036118448
0003e0 09 5e 6b bd 60 cc 84 3c 13 59 2c 3d a4 b2 57 bc
       -0.057462726 0.016210735 0.042077135 -0.01316515
0003f0 eb d5 81 bd 25 7f f1 3c 08 35 cc bc c3 4a 87 bd
       -0.0633963 0.029479573 -0.024927631 -0.066060565

lstm.bias_ih_l0 f4 [256]
000000 d3 4d c5 3c 76 2c 51 bd 36 e7 0f 3e e3 2e 26 3d
       0.024084961 -0.051067792 0.14053044 0.04057206
000010 17 8f 7c bd 6d 8d db bc 59 69 07 be 56 6b 29 3c
       -0.0616599 -0.026800836 -0.1322378 0.010340532
000020 45 0f 1b 3d 50 1d fb bd b8 9d 0f 3d 61 87 de 3d
       0.03785636 -0.1226145 0.03506252 0.10865665
000030 e7 c4 0f 3c 48 d1 01 3e ad ee 2e b8 17 4c 2b 3d
       0.0087749725 0.1267749 -4.1707117e-05 0.04182061
000040 33 15 8b bd 03 36 b4 3c 2e 51 27 3d 1c 4d d7 3d
       -0.06791153 0.021998411 0.040848903 0.10512754
000050 b8 42 03 3e 68 79 8e bb da 12 29 3e 91 33 4d 3d
       0.1281842 -0.004347969 0.16511098 0.050098006
000060 1d a7 bb 3d e0 e4 d3 3d b0 36 ca bd 94 0a f5 3d
       0.09162734 0.10346389 -0.09873712 0.11964908
000070 f0 1b 7b 3d a9 06 ab bc 08 a2 cf bd 65 a6 01 3d
       0.06130594 -0.0208772 -0.10138327 0.031652827
000080 d6 c7 71 ba 4e f3 9c 3d 86 ef 97 3d 52 65 1d bd
       -0.0009223198 0.07663594 0.07418732 -0.038426705
000090 ed f2 f3 3c 5b f0 25 bd 0a e4 17 3e aa 48 8a 3d
       0.029778922 -0.040512424 0.14833084 0.06752141
0000a0 c6 aa 82 3d ef 80 b3 3d 32 71 9a bd 06 be 91 bc
       0.06380229 0.087648265 -0.075411215 -0.017790806
0000b0 1f 49 93 3c 7a 8d 00 be 32 b9 58 bd ff 34 fe 3c
       0.017979203 -0.12553969 -0.05291099 0.03103113
0000c0 ed a0 17 3e 0f 10 25 bd ef 6b 11 bd 04 1c bd 3d
       0.14807482 -0.040298518 -0.035503324 0.09233859
0000d0 ab ad e8 3d 9a ad b4 bd d4 3c 7b 3d ad 33 d4 3c
       0.113612495 -0.08822174 0.061337307 0.025903547
0000e0 fa 5d 99 bd e9 fc 3e 3b 9f 05 7f bd 6e 0e 62 3e
       -0.07488628 0.0029142445 -0.06226122 0.22075817
0000f0 7a 8c e7 bc 6c 81 1c 3c 6b de 39 bd db 3a 9a 3c
       -0.028265227 0.009552341 -0.04537813 0.018826893
000100 f3 d0 05 3e 8a 12 33 bd 0e 7d 7e 3d 36 96 a5 bc
       0.13067989 -0.043718852 0.06213098 -0.020213228
000110 18 be 2d bd ce 3b 36 bc 95 ac b7 3d 1a 88 52 bd
       -0.042417616 -0.011122657 0.08968464 -0.051399328
000120 4a 34 0e bd 88 40 d3 3d a7 d5 49 bc 5e 45 92 3d
       -0.034717835 0.10315043 -0.012319005 0.07142137
000130 43 ac 19 3d 2a d4 00 3d 84 e5 46 3d 2e a2 86 bd
       0.037517797 0.031452335 0.048558727 -0.06573902
000140 55 75 45 3c 1d 19 90 bb 61 a0 d2 3c 5b 5b 53 bc
       0.0120519 -0.004397525 0.02571124 -0.012900199
000150 7e 5c 8a bc 8a d8 9a bd 8e ad ce 3d 94 e8 26 3d
       -0.016889807 -0.07560833 0.10091697 0.040749148
000160 0b 61 36 3d c8 35 9f 3d 63 5e 11 3d f7 62 9a 3d
       0.04452614 0.0777393 0.035490405 0.07538407
000170 b0 f1 84 3d 2d 23 b2 3b 2e a4 c5 3b 4f a2 f1 bd
       0.06491411 0.005436322 0.0060315346 -0.11798536
000180 da fa 6f bd e3 56 cf 3d d8 98 0a 3e a1 79 94 bd
       -0.05858884 0.10123994 0.13534868 -0.072497614
000190 14 ca 76 bd 72 07 98 3d ae 36 d7 bd 18 70 9d bc
       -0.06025131 0.07423295 -0.10508476 -0.01921849
0001a0 6a 0f b1 bd 97 a5 34 bd ae 1c a5 bd 29 06 d8 3c
       -0.08645518 -0.04410323 -0.08062111 0.026370125
0001b0 bd 07 88 bc 43 2c 9e bd 06 8b 9a 3d c6 da 45 bd
       -0.016605252 -0.07723286 0.07546048 -0.04830434
0001c0 23 fb bd bd 60 07 98 3d c2 23 99 3d 22 7e 94 bc
       -0.09276416 0.07423282 0.074775234 -0.018126551
0001d0 dc f4 19 3d 55 f0 29 3d aa dd 36 bc 67 ac 1f bb
       0.03758703 0.041488964 -0.011161247 -0.0024364234
0001e0 46 56 27 bd cd df a0 3d eb f6 2b 39 4e 9a dd 3d
       -0.04085376 0.078551866 0.00016399815 0.10820447
0001f0 fe 16 72 3d 41 fc a0 bc bc 21 87 bd 47 ec 33 3c
       0.05910396 -0.019651534 -0.06598231 0.010981626
000200 d0 48 6b 3d ad 0a ec 3d b2 dc fb 3d 16 f7 bc 3d
       0.057442486 0.11525474 0.12297954 0.092268154
000210 1d 67 d4 bd 02 f6 ca 3c e4 09 ce 3d be 85 a6 3d
       -0.1037123 0.024775509 0.1006048 0.08130978
000220 8c 7d 9a 3d 6a 86 d0 3d c4 28 08 bc 7d d3 7f 3d
       0.075434774 0.101818874 -0.0083105005 0.06245755
000230 5b d5 d5 3d ce bb 27 3c 80 ce 9e bd 71 5e 4b 3c
       0.10441085 0.010237647 -0.077542305 0.012412653
000240 74 d5 13 3e d2 ff c8 3c fa 15 d7 3c 5e 4f e1 3c
       0.14436895 0.024536047 0.026255596 0.027503666
000250 30 10 e2 3d a8 aa 96 3d 4b 1f 43 bd 1c 7c 5d 3d
       0.11038244 0.07356769 -0.047637265 0.054073438
000260 27 f1 45 bd 51 32 8e 3c bc 83 cc bd 9d 99 91 3d
       -0.048325684 0.017357977 -0.09986064 0.071093775
000270 81 22 39 3d 2a aa bb bd a0 83 3b 3d 88 61 92 bc
       0.04519892 -0.091633156 0.045779824 -0.017868772
000280 d7 2e e9 bc 90 6e 1e 3d 1e e1 83 3b 3b fa 3c bd
       -0.028464718 0.03867966 0.004024639 -0.046137076
000290 fb 05 9f 3d 0a ec d9 3c 07 1c a4 bd 6d c7 7c bc
       0.077648126 0.02660181 -0.08013158 -0.015428406
0002a0 e7 27 21 bd b1 97 64 bd 07 90 de 3d a9 09 cd 3b
       -0.039344694 -0.055808727 0.10867315 0.006257255
0002b0 0d 6a 43 3c 1d 49 7e bc 1d 46 c2 bc b6 a0 ba bd
       0.01192714 -0.015520361 -0.023715073 -0.091126844
0002c0 40 9f 38 bb ea 36 e9 bc 64 f3 d4 3c 38 41 44 3c
       -0.0028171092 -0.028468568 0.025994964 0.01197844
0002d0 42 08 ea bd 69 ff 6e bd 1d 0f a6 bd 8a eb 3c 3b
       -0.11427356 -0.058349047 -0.081083514 0.0028826916
0002e0 34 2b 96 3d 0e de 71 3c 21 d3 09 ba 3b 17 a9 3d
       0.07332459 0.014762415 -0.0005257596 0.08256384
0002f0 5e 59 3e bc 31 9e e4 3d f7 a8 cd bd ee 0f 26 bd
       -0.0116179865 0.11162985 -0.10041993 -0.040542535
000300 01 b2 56 3b 24 78 9c bd 81 4f bf 3d 11 00 c5 3d
       0.0032759907 -0.076401025 0.09341336 0.09619153
000310 89 dc cc 3d f9 6b b6 3a 07 93 c4 3d fd d7 4f bc
       0.10003001 0.0013917676 0.09598356 -0.012685773
000320 82 f5 db 3c c2 5a 90 3d da d4 51 bd da 33 6e bd
       0.026850466 0.07048561 -0.05122838 -0.05815492
000330 3d d2 d3 3c 79 1f a0 3d d3 f5 03 3c 85 a7 b5 3d
       0.025857085 0.07818503 0.0080542145 0.088698424
000340 a9 f4 f9 3c 5a 33 33 3e 5a df dc 3d 04 d1 a8 bd
       0.03051217 0.17500058 0.107847884 -0.082429916
000350 d2 05 a4 bd 03 3c a4 3d 15 1e 63 bd 8e 7f 0d ba
       -0.08008923 0.08019259 -0.05544861 -0.000539773
000360 0c e5 08 3e ca 80 40 3d 04 bf 84 bc 15 bd ad bd
       0.13368624 0.046997823 -0.016204365 -0.0848333
000370 54 32 92 3c b3 d5 a8 bb 41 17 8f 3d 77 44 21 bd
       0.017846264 -0.005152428 0.06986857 -0.039371934
000380 f6 05 39 3d 63 ad 74 39 af 11 ff bd 9e 8b 65 bc
       0.0451717 0.00023334245 -0.12454545 -0.014010338
000390 19 bf dd bd 1f 98 01 bd cc f4 ee bc 70 bc 26 3d
       -0.108274646 -0.031639215 -0.029169463 0.04070705
0003a0 a5 9a b2 bd 2c 83 b4 bd 2c 07 29 bd d5 b4 a7 bc
       -0.08720902 -0.088140815 -0.041266605 -0.02047197
0003b0 76 af 42 bd 15 7a 05 bd 52 e1 96 3d 22 5a 0b be
       -0.047530614 -0.03258713 0.07367195 -0.13608602
0003c0 5d 91 3a bd 85 82 25 3c d3 7a 45 3d 1e 5f 34 bc
       -0.045548785 0.010101919 0.048212837 -0.011009006
0003d0 12 7e 39 3e b7 19 58 3d 52 6f 4a bd 31 d1 91 3d
       0.18114498 0.0527589 -0.04942257 0.07119978
0003e0 d3 8c c8 bb b6 e3 a2 3d 30 30 94 bd 36 e5 46 3e
       -0.006120303 0.07953589 -0.072357535 0.19423375
0003f0 d2 6f 1c 3d ab f3 51 bd d4 f9 af bd f9 ac 02 3e
       0.038192578 -0.05125777 -0.08592573 0.12761296

lstm.bias_hh_l0 f4 [256]
000000 eb 74 d4 bd fa 29 4c bd 1c 6a 23 bc a3 87 e6 bd
       -0.10373863 -0.04984472 -0.009974029 -0.112563394
000010 8a 84 9e bb 2a 30 be 3d 5b 8a 78 3d 8c 7c b0 3d
       -0.004837577 0.0928653 0.06067882 0.086175054
000020 34 ca af bc 5f 56 57 3c 24 3e c8 3c fd 23 88 bd
       -0.021458723 0.013143151 0.024443693 -0.06647489
000030 39 05 b3 3d 0e dd ac 3d 3e b5 02 3e 39 4e 95 bd
       0.087412305 0.084406 0.12764451 -0.072903104
000040 9f 60 60 3d e4 77 02 3e 61 f0 46 3b 94 18 8c 3d
       0.054779645 0.12741047 0.003035568 0.068406254
000050 71 7a 9a 3d 5b 49 48 bd 99 5e 17 3e 86 09 8a 3d
       0.07542885 -0.048898082 0.1478218 0.06740098
000060 b0 a2 dd bb 32 b1 98 3d 06 1e 9f 3d e1 36 b4 3c
       -0.0067637786 0.07455672 0.077693984 0.021998825
000070 2f 62 bc 3d d7 89 14 bd 43 59 21 bd ef 7b bc 3b
       0.091984145 -0.036264267 -0.039391767 0.0057520787
000080 05 97 eb 3d 45 32 2e 3d 0b 21 08 bb 1c df 2b 3b
       0.11503414 0.04252841 -0.0020771648 0.0026225513
000090 30 97 83 bc eb 7b dd bc 67 51 0d 3e 9f 31 7b 3d
       -0.016063303 -0.027036628 0.13800584 0.06132662
0000a0 5a 23 ab 3d 5d 21 15 bc 98 ad be bd aa 9d b6 bd
       0.08356352 -0.009102193 -0.09310454 -0.08916791
0000b0 ff 9c cb 3d f7 ac 44 bd e1 0d 0a 3b 85 1a 88 bd
       0.09942054 -0.048016515 0.0021065401 -0.06645683
0000c0 3d 84 a8 3d 1c 0c e4 3c e7 5d ef bd 78 9b d3 3d
       0.082283475 0.027837805 -0.11687832 0.10332388
0000d0 b0 3c d3 3d 4f 11 45 3d 90 e4 d2 bd 0b dc d6 3c
       0.103143096 0.04811221 -0.10297501 0.026227972
0000e0 f4 d3 19 3e eb 9e 7d 3d c2 72 11 bd 69 c7 e8 3d
       0.1502226 0.061919134 -0.035509832 0.113661595
0000f0 a0 c5 0f bd 29 3a a6 3d 24 31 87 3d 33 9c 7b 3d
       -0.03510058 0.08116562 0.0660117 0.06142826
000100 73 74 b1 bd e7 97 9c 3d 6b b5 db 3c 37 41 a5 bd
       -0.08664789 0.076461606 0.026819905 -0.08069079
000110 9a 01 04 bd 46 bf c1 3d 05 4a d6 bd 28 b0 0a 3e
       -0.03222809 0.09460311 -0.10463337 0.13543761
000120 87 75 0e 3e 20 0f ab bd 6c dd 8a bd 47 78 55 bd
       0.1391202 -0.08352494 -0.06780514 -0.05211666
000130 cf 50 eb bb 5a c9 c4 bd 41 39 10 3e a8 45 04 3e
       -0.007181264 -0.09608717 0.1408434 0.12917197
000140 f0 98 90 3c 21 3e b4 3d 5d d1 09 3e 7c 49 27 3d
       0.017651051 0.08800913 0.13458772 0.040841565
000150 bd 76 49 bd 79 6a b2 bb 40 d1 cb 3d 8c 61 40 bd
       -0.049185503 -0.0054448214 0.09952021 -0.046968028
000160 7d 1b bb 3b e2 86 8e ba d7 c5 13 3c b7 01 db bc
       0.005710064 -0.0010873938 0.009019337 -0.026734216
000170 84 b7 1d bd ba 3c 8f 3b a8 73 f3 3d 03 84 42 bd
       -0.038505092 0.004371253 0.11887294 -0.047489177
000180 75 09 3d bc df 1a be 3d a5 e1 64 3d 3b 28 92 bd
       -0.011537899 0.09282469 0.055879254 -0.071365796
000190 f4 51 28 bd d8 6a 2c bd 40 ad 80 bd 51 95 df bd
       -0.04109378 -0.04209408 -0.06283045 -0.10917152
0001a0 28 5b b8 3d aa 35 e4 3d 08 6e e9 bd f1 f8 20 3e
       0.09001762 0.11143048 -0.1139794 0.15719964
0001b0 af d4 98 3d 81 bd cd 3d 0e 06 b5 bd 11 0f 35 3d
       0.07462441 0.100459106 -0.088390455 0.04420382
0001c0 55 90 ee 3d 10 00 aa 3d 83 81 36 bd 31 fb b9 3d
       0.11648623 0.08300793 -0.044557106 0.09081114
0001d0 2d dc c8 3d 61 ff 5c bd 4b f8 8f 3d 84 3f 16 bd
       0.0980762 -0.053954486 0.0702978 -0.036681667
0001e0 db 75 23 3e 0c 45 79 bc 12 32 98 bd b8 c4 c9 3d
       0.15962927 -0.015214216 -0.07431425 0.09851974
0001f0 05 6e ad bc b7 4e ac bc fa ed 9c 3d 44 de dc 3d
       -0.021170625 -0.021033628 0.07662578 0.10784581
000200 b4 05 0a 3d 9f e8 cf 3d 5c 4a 72 3d ce 21 f1 bc
       0.033696845 0.10151791 0.059152946 -0.029435065
000210 79 f0 4f bd 01 58 fb bc bb ee 2c bc 09 42 28 3c
       -0.050766442 -0.030681612 -0.010554965 0.01026965
000220 4c 40 97 3c 3b de 7b 3c 87 8f 52 bd 5c 9e 99 bd
       0.018463276 0.015372808 -0.05140641 -0.07500908
000230 91 3b 09 3e 4c fa 3a bd 45 e5 79 3d e5 03 c4 3d
       0.13401629 -0.045648858 0.061009664 0.09571055
000240 de f1 95 bd 42 ed ef 3c 9c 27 96 3c 83 a1 89 bd
       -0.07321523 0.029287938 0.018329434 -0.06720259
000250 e8 6f 15 bc 8a a2 57 bd f3 1a 13 be 15 af 1d bc
       -0.009120919 -0.052645244 -0.14365749 -0.009624262
000260 26 1f ff 3d 3e dc ee 3d ee 9b 86 bd 94 ee 3d bc
       0.12457113 0.116631016 -0.0657271 -0.011592526
000270 38 2f c3 bd 18 06 c7 3d 1e 4b ba bd cd 27 31 bd
       -0.09530491 0.09717959 -0.09096359 -0.043250848
000280 85 98 9a bc b1 8f 8a bd 1b 49 d8 3d 8a fa b5 bd
       -0.018871555 -0.06765688 0.10560819 -0.08885677
000290 8d 3b db bd 66 04 df bd c1 9d 4d bd df 0d 95 3d
       -0.10704718 -0.10889511 -0.050199274 0.07278036
0002a0 c6 ed 3a 3d c8 cb 8c 3c 2f c3 b2 3d 39 3d d8 3d
       0.045636915 0.017187014 0.087286346 0.10558552
0002b0 93 8f 46 3d 43 b3 bd 3c 2a eb 3a bd 74 b7 d8 bd
       0.048476767 0.023156768 -0.045634426 -0.10581866
0002c0 52 cc 12 3d 80 4c 06 3e 61 86 84 3d eb e3 79 3b
       0.035839386 0.1311512 0.06470943 0.0038130234
0002d0 6f fa 9f 3b 36 d5 0b 3e 6f 96 e5 bd 83 01 d7 3d
       0.004882149 0.13655552 -0.112103336 0.10498335
0002e0 98 4a f2 3d ed e9 13 3d a5 72 2b 3d a3 30 85 3c
       0.11830634 0.03611176 0.04185738 0.016258543
0002f0 33 7e 39 3d 99 5c 8c bd 44 8a 79 bc 73 21 b3 bd
       0.04528637 -0.06853599 -0.015230719 -0.08746614
000300 bf 4e 11 3d d5 5b 7a bc aa 6f 29 3e ad 9b 66 3d
       0.03547549 -0.0152806835 0.16546503 0.056300808
000310 11 87 0c 3e 01 f9 bd bd 28 90 61 bc 7d cc 10 3e
       0.13723399 -0.09276009 -0.01376728 0.14140506
000320 b3 d2 c7 3d b0 15 ae bd 54 f2 0c bd 51 86 dd 3d
       0.097569846 -0.0850023 -0.03441079 0.108166344
000330 4d 44 f1 3d b6 9e 68 3c f5 fd 1c 3d ce bd 00 3e
       0.117806055 0.014197996 0.03832813 0.12572405
000340 99 a7 80 3d 05 5e 95 3d 11 c6 a4 3d fc 52 b4 bd
       0.06281967 0.072933234 0.08045591 -0.088048905
000350 89 13 3e bd 19 28 b1 3d 72 de 0e bc fb 13 94 bc
       -0.04640535 0.08650226 -0.008720027 -0.018075934
000360 16 d0 b5 bd ce 7a df 3d a3 d2 15 3d d9 a3 83 3d
       -0.0887758 0.10912095 0.036577832 0.06427736
000370 03 86 06 3e 9f ac 0e be 7d b0 d7 bd ad 13 69 3d
       0.13137059 -0.13933037 -0.10531709 0.05690353
000380 ea 3e 33 3e 4d 17 02 3d 69 8d 24 3c 75 8a 15 3e
       0.17504469 0.031760503 0.01004348 0.14603598
000390 7d 89 47 bd 7f 71 f7 3d 45 71 16 3e 8c a7 f1 bd
       -0.048715103 0.120821945 0.14691646 -0.11799535
0003a0 dc 46 41 bc cb 77 08 3e 73 01 b6 3d 23 7e 5e 3c
       -0.011796679 0.13326947 0.08886995 0.013579878
0003b0 8c 47 02 3e 23 9f d6 bd 0e 88 79 3d e7 80 45 bb
       0.12722605 -0.10479572 0.060920767 -0.0030136646
0003c0 0d 7d a5 3d 12 b0 8c 3d 30 ea 60 3c 65 15 46 3d
       0.08080492 0.0686952 0.01372771 0.048360247
0003d0 b6 fe 1e 3e 37 b8 7b 3d 5b 70 eb 3d f3 cf ff 3d
       0.15526852 0.061454978 0.114960395 0.12490835
0003e0 b5 5a 20 3e 1b 61 a6 bb bc 64 03 be 38 0d 14 3e
       0.15659602 -0.005077494 -0.12831396 0.14458168
0003f0 0f 38 a4 3d d4 43 cb 3d 4e af fa bc 2a 13 03 3c
       0.08018505 0.099250466 -0.03060117 0.008000175

lstm.weight_ih_l1 f4 [256, 64]
000000 37 b2 f7 bd 59 6d 9c bd e4 f5 0a 3e 0b e1 ad bd
       -0.12094539 -0.07638044 0.13570362 -0.08490189
000010 54 03 86 bd 5c b9 33 3d 93 12 f9 ba e2 aa f5 3d
       -0.065436035 0.043877944 -0.0019002728 0.11995484
000020 64 ef c8 bd 13 a5 88 3a 58 92 8a bd 20 01 89 3d
       -0.09811285 0.0010425173 -0.06766194 0.06689668
000030 bd 18 21 3e 4a 2a c4 bc 2b 46 b8 3d 06 f1 9a 3d
       0.15732093 -0.023945946 0.089977585 0.07565503
000040 9c 66 c2 bd 26 e1 de bd f8 44 76 3d 78 0f c7 bd
       -0.094922274 -0.108827874 0.060124367 -0.09719747
000050 0b 12 92 3c 62 7c 67 3b aa 3f 6a 3c fd a8 bd 3d
       0.01783087 0.003532194 0.014297405 0.092607476
000060 3c 81 88 bd 99 00 dd bc 1a f8 cb bd b9 2f ce 3d
       -0.066652745 -0.026977824 -0.09959431 0.10067696
000070 70 a1 ea 3b 88 7d ff 3d 47 26 d9 3d e7 a3 2f 3d
       0.007160358 0.12475115 0.10603004 0.04288092
000080 b3 bd ec 3d ab 04 bc bb b8 48 bc bd 31 e1 6b bd
       0.1155962 -0.005737861 -0.091935575 -0.057587806
000090 ec 22 f7 bc 80 64 16 bd b7 ad 61 bd 26 c7 c7 bd
       -0.03016802 -0.036716938 -0.055097308 -0.097547814
0000a0 21 72 4b 3d 1e e9 be bd 5c c5 cf bd ff f9 79 3d
       0.04966939 -0.09321807 -0.10145065 0.06102943
0000b0 95 85 ed bd cf 1b a7 3c c7 09 a3 bc 6d 05 a2 3d
       -0.115977444 0.020399002 -0.019902123 0.07911191
0000c0 79 33 ef 3d 8a 7c 97 3d e9 ee d9 bd fd 4a e6 bb
       0.116797395 0.07396801 -0.106412716 -0.0070279823
0000d0 77 bb 75 3d e3 69 d9 bd 92 ae 01 be 90 f7 d8 bd
       0.059993234 -0.106158994 -0.1266425 -0.10594094
0000e0 29 6c ec bd c4 ef 68 3d 3a eb 8d bc 73 2d 4d 3c
       -0.115440674 0.056869283 -0.017324079 0.012523043
0000f0 15 76 00 be 2d 8b 0e bd 0e 57 c6 bc b0 72 dc 3d
       -0.12545045 -0.034800697 -0.024211433 0.107640624
000100 42 8e 42 3d fa 3f d8 bd 40 65 ad 3d 39 cd 96 bc
       0.04749895 -0.105590776 0.084665775 -0.018408405
000110 98 f2 b0 bc 98 0e a3 bc d3 c1 c3 bd 8a 72 6d 3d
       -0.021600053 -0.01990442 -0.095584534 0.05797056
000120 b1 f1 f4 bc e7 11 7a bd 2d 20 1d 3d 28 a1 54 3d
       -0.029900404 -0.06105223 0.038360763 0.051911503
000130 10 cb cc bd 77 eb 02 bd d3 7f 96 bd 4d 97 b9 3d
       -0.099996686 -0.031962838 -0.07348599 0.090620615
000140 8c 34 07 3d 80 3a fc bc e3 cf c0 bc b9 41 ba bc
       0.033009097 -0.030789614 -0.023536628 -0.022736417
000150 26 9d ca bc e0 df 5d 3c 83 c4 a6 bc d2 2e dc bd
       -0.024733137 0.0135421455 -0.020357376 -0.10751118
000160 04 6e d2 bd 01 e7 05 3e 15 b4 71 bd 79 a1 d7 3d
       -0.1027489 0.13076402 -0.05900963 0.10528845
000170 e1 04 0d 3d 79 3f ad bc 62 d5 8a bd 2b 21 97 bd
       0.03442848 -0.02114843 -0.06778981 -0.07379373
000180 c4 c8 77 bd a6 19 12 3d e3 9a 82 bd 85 6d e2 3d
       -0.0604942 0.03566899 -0.063771985 0.110560454
000190 8c 84 f9 3c 83 b4 c1 bc 90 1a f6 bc e9 aa cb 3c
       0.030458711 -0.023645645 -0.030041963 0.02486177
0001a0 cf cd 66 bc 91 62 11 bd 3c 2a f2 bd 18 42 b6 3c
       -0.0140871545 -0.03549439 -0.11824462 0.022248313
0001b0 38 0a dd 3c 9b 1a d6 3d 22 65 55 bd ae 4a 67 3d
       0.026982412 0.10454293 -0.0520984 0.056467704
0001c0 14 1b 94 3d 70 4f c2 3c e1 1b c9 3d 4a 5a fd bd
       0.07231727 0.02371952 0.098197706 -0.12370737
0001d0 3a 68 e5 3d 4a e5 0e bd e2 fd 8b 3d 50 87 b2 3d
       0.1120152 -0.034886636 0.06835534 0.08717215
0001e0 b3 8d 92 3b 2a f0 e5 bb 4b ea 18 3d bd 66 26 3d
       0.0044724583 -0.007017155 0.037332814 0.040625323
0001f0 25 82 47 bc 63 ae ea 3d b1 7a bd 3c 62 30 cd 3d
       -0.012177025 0.11459043 0.023129793 0.10018994
000200 a2 2e ba 3c 45 1d 32 bc 31 e6 5a bd b6 2d 1f bd
       0.022727314 -0.010871236 -0.053442184 -0.038861953
000210 c5 44 24 be 7e 82 93 3d 35 d2 99 3d 5d f5 cb bd
       -0.16041858 0.07202624 0.07510797 -0.09958909
000220 b3 f6 8c 3d b4 7c af bd 2c 3d 70 bd aa 62 e7 3d
       0.06882992 -0.08568707 -0.058652088 0.112981156
000230 fc 71 2f bd 9a b5 ba 3d ba a1 25 3d 19 8f f3 3c
       -0.042833313 0.09116669 0.040437438 0.02973132
000240 ac cf 01 be c5 40 9f 3d 06 17 52 bd 2c dc 94 bd
       -0.12676877 0.07776026 -0.051291488 -0.07268557
000250 4a 85 74 bd 4a 0c e5 3d 93 f9 ce bc ec 98 4c 3d
       -0.059697427 0.111839846 -0.02526549 0.049950525
000260 dc af 80 bc 9f 41 70 bd 5f 40 99 3c 20 fd ad 3d
       -0.015708856 -0.05865633 0.018707452 0.084955454
000270 90 44 99 3d fd bb 46 3c 28 e7 11 bd 95 ce 82 3d
       0.074837804 0.012129781 -0.03562084 0.06387059
000280 d5 bd 35 bd a7 0b 47 bc c2 4a 89 3d fd 9b d0 3d
       -0.04437049 -0.012148774 0.06703712 0.101860024
000290 1f 85 31 3c f6 c2 6b bd 6c ea 13 be b4 30 72 bc
       0.010834961 -0.057558976 -0.14444894 -0.01478212
0002a0 86 6f e9 bd 4e 81 e1 3c 1a 9d 32 bc d6 38 f4 3c
       -0.113982245 0.027527478 -0.010901714 0.029812258
0002b0 7d 38 02 3e b8 ce ea 3c 08 55 28 3d a1 e5 b9 bd
       0.12716861 0.028663024 0.041096717 -0.09077001
0002c0 2a 2c c9 bc d6 8c 02 be 06 6b 1c 3d 46 eb da 3b
       -0.024557192 -0.12749037 0.038188003 0.006680879
0002d0 0c 55 25 3e 72 41 b8 3d ef 6e 63 3b 6a c6 55 bd
       0.16145724 0.08996858 0.0034703573 -0.052191176
0002e0 74 ae 24 3e 5c cf e4 bd de 53 22 bd 49 de 36 3d
       0.16082174 -0.11172363 -0.039630763 0.04464558
0002f0 bc 7a 98 bc 28 2a c9 3d 14 a4 a9 bc 4c b5 de 3d
       -0.018613212 0.09822494 -0.020708121 0.108744234
000300 65 e9 70 bc 08 74 cd bd c9 eb 87 3d 5f 2b 85 bd
       -0.014704083 -0.10031897 0.06636769 -0.06502413
000310 8d fa 5d bd e5 8f c9 bc 2c f4 a5 3d 9f f5 90 3c
       -0.054194022 -0.024604747 0.08103213 0.017695246
000320 c0 62 57 3d 7f ce b9 bd d7 13 0e bd e8 1d 17 bc
       0.05258441 -0.09072589 -0.03468689 -0.009223439
000330 93 68 01 3e 00 7f aa 3c 48 48 12 be 17 5f 2a bb
       0.12637548 0.020812511 -0.14285386 -0.002599662
000340 93 06 e4 bd 88 bc b7 3b 23 04 8d 3a cc b6 d1 bd
       -0.111340664 0.0056071915 0.0010758679 -0.10239944
000350 1e 11 a4 bd 44 ce 0f bd b2 93 d0 bd 45 63 1a 3e
       -0.08011077 -0.03510882 -0.10184421 0.15076931
000360 56 a7 5a bd cc 88 60 bd aa fd 95 3d 6b a6 f8 bc
       -0.05338224 -0.05481796 0.07323773 -0.030352792
000370 1a 8d e5 bc 56 13 f7 bd 89 91 91 3d 15 91 83 3d
       -0.028021384 -0.12064235 0.07107837 0.064241566
000380 8c 1b ac bd 2d 26 04 3e 64 e0 e5 3d a2 bf c1 3d
       -0.08403692 0.12905188 0.1122444 0.09460379
000390 d7 86 6c 3c 90 7f f6 3c 92 9e 08 3e a4 eb 39 3d
       0.014436445 0.030090123 0.1334174 0.04539074
0003a0 5f 5d 27 bd e4 62 b8 bd b5 47 d0 3d b2 9e 0c bd
       -0.04086053 -0.09003237 0.10169927 -0.03433103
0003b0 58 64 15 bd 41 c3 ed bd d0 62 c6 3a a5 50 a7 bc
       -0.03647265 -0.11609507 0.001513565 -0.020424196
0003c0 28 c7 ee 3d ab 54 71 bd b4 67 37 3d df 13 bd bd
       0.1165908 -0.058918636 0.044776633 -0.09232306
0003d0 0f e4 ed bd 84 ca db bd 67 76 ed bc 5e eb a1 3c
       -0.11615764 -0.10731986 -0.028987123 0.019765552
0003e0 cb e8 b8 3c 23 6b 13 3e 7b 6e 6a 3d 08 54 81 bc
       0.022571942 0.14396338 0.05723427 -0.01578714
0003f0 72 75 84 3d 89 b8 dd bd cc 4f 05 3e e1 a1 8e bd
       0.064677134 -0.10826213 0.13018721 -0.0696447

lstm.weight_hh_l1 f4 [256, 64]
000000 40 d5 82 bd 28 b7 6b bc f7 b4 b6 bc bb 84 fc 3c
       -0.063883305 -0.01438693 -0.022303088 0.03082501
000010 f4 1a eb 3c f7 1a 74 3c 2b ae 2e 3d 61 b2 28 3d
       0.028699376 0.014899007 0.04264657 0.04118574
000020 a6 ff a2 3d 69 67 76 bc 42 14 52 bd d2 87 98 3c
       0.07958917 -0.015039303 -0.05128885 0.018619452
000030 e3 54 6f bd 7c ca 9e bd 33 ec 99 3c cc 29 c1 bd
       -0.058430564 -0.077534646 0.018789386 -0.094318
000040 f3 b2 96 3d 42 79 4d 3d 97 bb 8f bd 51 fa 9b 3d
       0.073583506 0.05016447 -0.07018202 0.076161034
000050 1f b2 d9 3d 8c e4 c4 bd 89 07 83 3d cd 49 d1 3d
       0.10629677 -0.09613904 0.063979216 0.102191545
000060 85 b9 09 be 40 7d bf bd c5 a8 99 bd 76 5a aa 3d
       -0.13449676 -0.093500614 -0.07502893 0.08318035
000070 f7 84 26 bd a3 ac be 3d 1b 51 bd bd 35 15 ef bd
       -0.04065415 0.093102716 -0.09243985 -0.11673967
000080 ba 23 07 be 42 a4 f7 3d b3 02 d3 bd d6 d1 c2 3d
       -0.13197222 0.120918766 -0.10303249 0.09512679
000090 3d 8b b9 bd 2d 6e c0 bc d2 a2 8f bd 70 60 87 bc
       -0.09059761 -0.023490036 -0.070134774 -0.016525477
0000a0 bf 0b 22 bd 07 93 c0 3d 0f 58 d2 bc d2 1b d4 3d
       -0.039561983 0.09403043 -0.025676755 0.10356869
0000b0 dd b6 9d bc b5 05 98 3d e9 7f a3 3d fa a3 a0 bd
       -0.019252235 0.074229635 0.07983381 -0.07843776
0000c0 7e dd 16 bd 99 76 f1 3d 55 32 aa bc 05 3d 8f 3d
       -0.036832325 0.11790199 -0.020775953 0.069940604
0000d0 e6 2a a2 3d 78 7b e3 bd e2 54 3f 3d 46 b8 9c bc
       0.079183385 -0.11107534 0.04671181 -0.019130837
0000e0 5b ef 20 bd 01 02 ea bd fd e0 21 3c 9d 77 da 3d
       -0.039290767 -0.114261635 0.009880302 0.10667346
0000f0 d3 4c a8 bd 39 c7 91 3b 7d 1e f7 bd cd 30 a5 3d
       -0.08217778 0.004448798 -0.12066362 0.08065949
000100 5a 3f 5d 3c 22 b6 ed 3d 8d 61 93 bd 4b e0 a6 3c
       0.013503874 0.11607005 -0.07196341 0.020370623
000110 6a c2 50 bd e0 31 df bc fd 65 82 3d f2 07 1b 3e
       -0.050966658 -0.027245462 0.06367109 0.1513975
000120 1b 15 f7 bd fc f3 d7 3d e4 c8 50 3d 5d e1 4d bd
       -0.120645724 0.10544583 0.050972834 -0.05026375
000130 d5 f3 95 bd ff 08 b6 bd 86 00 0f be a6 90 ab bb
       -0.07321898 -0.088884346 -0.13965043 -0.0052357493
000140 ea 5b a2 3c 2c 63 e2 bd f1 e5 b0 3d 25 21 f7 3d
       0.019819219 -0.11054072 0.08637608 0.12066869
000150 76 66 c8 3d 95 46 64 3d 5a d7 f2 3d 85 0f 40 bd
       0.09785168 0.055731375 0.11857481 -0.0468898
000160 b7 c3 ad bd 1e c2 2a 3e d8 5c 96 bd 3c c6 c2 bd
       -0.08484595 0.16675612 -0.07341927 -0.095104665
000170 1a 18 a4 3c 02 67 ec bd 9e fe aa 3d 98 f2 ad 3d
       0.020031024 -0.11543085 0.083493456 0.08493537
000180 be 8e f0 3d 70 97 1f bd 34 e4 e4 bd 5a 91 e3 bd
       0.11745976 -0.03896278 -0.11176339 -0.11111708
000190 64 3c e6 3c 21 de 98 3d 1a be 17 3e 92 62 18 3e
       0.028104968 0.07464243 0.14818612 0.14881352
0001a0 6f 6c 1e 3d e2 18 f9 3d 39 05 cf bc b1 cb a9 bd
       0.03867763 0.12162949 -0.025271045 -0.08290804
0001b0 fd 81 f3 3d 2d 67 9e 3c 7e 1b 1d 3d 10 a2 0d 3e
       0.11890028 0.019336307 0.038356297 0.13831353
0001c0 f2 84 ad 3d 27 54 db bd 37 0c f8 3d 45 6f 3b bd
       0.08472623 -0.1070941 0.12111705 -0.04576041
0001d0 4e b2 bd 3c d9 7f e9 bd 40 c9 18 3d 42 41 06 bd
       0.023156311 -0.11401338 0.037301302 -0.03277708
0001e0 4f 47 37 3d f8 e8 01 3e e4 06 2c bc b7 1a 13 3c
       0.04474574 0.12686527 -0.01049969 0.008978537
0001f0 2b fa 66 bc e6 93 8a 3c c8 f9 ec bd f5 0c 33 3d
       -0.014097731 0.016916227 -0.115710795 0.04371353
000200 12 9f 63 3d c7 fe 16 be 81 34 59 bd 52 48 5b bd
       0.055571623 -0.14745627 -0.053028587 -0.053535767
000210 0d 53 00 3d 11 d0 24 bc 92 37 b8 3d 1d 7f 6e bd
       0.031329203 -0.0100593725 0.08994974 -0.058226693
000220 d0 fd f4 bd 97 62 6c 3d 62 75 98 bc 1c ab b4 3d
       -0.119624734 0.05771121 -0.01861066 0.08821699
000230 c9 fe 37 bd 81 dc d1 3d f5 04 00 be 8f a6 9b bd
       -0.044920716 0.10247136 -0.12501891 -0.07600128
000240 62 4f 9d bd 78 63 47 bd c9 51 fe 3c 59 1c 82 bc
       -0.07681157 -0.048678845 0.031044858 -0.015882658
000250 b8 61 e1 3d b1 34 90 bc 94 04 ed bd 41 2c ad bd
       0.110049665 -0.01760325 -0.11573139 -0.084557064
000260 38 d4 d5 3d fa 13 06 3e 52 cb 32 3c db 97 13 3d
       0.10440868 0.13093558 0.010912733 0.036033493
000270 d0 50 a4 bd 0c d8 d1 bd 8a 61 69 3d 18 6f ef 3b
       -0.08023226 -0.10246286 0.056977786 0.0073069446
000280 a6 6d 85 bb fd 11 8d 3d d2 e6 7e 3c 4d 9d 23 3e
       -0.004071909 0.068881966 0.015557962 0.15977974
000290 3c 1a 35 bd 61 5f 3d bd a5 26 27 3e 0c 16 a2 bc
       -0.044214472 -0.04623354 0.16323335 -0.019785903
0002a0 53 85 96 3d 7f c5 c3 3d 57 0d c6 3d fc e4 de 3c
       0.07349648 0.09559154 0.09670513 0.027208798
0002b0 72 9b 74 3d 58 e5 08 3d a2 5b 45 3d 28 9c 3b 3d
       0.059718557 0.033421844 0.04818309 0.04580322
0002c0 db 1e 8f 3d 74 9f a6 bd ae a6 dc 3c 84 47 8a bd
       0.06988307 -0.08135882 0.026934948 -0.06751922
0002d0 af 98 97 bd 5b 45 4c 3d e7 1a 7e 3d 15 d5 47 bd
       -0.07402169 0.04987083 0.062037375 -0.048787195
0002e0 bd 7e fa bc 0d 5c 94 bd 84 bc 2b 3d 68 55 8b 3d
       -0.030578012 -0.0724412 0.04192783 0.06803399
0002f0 33 d5 00 bd ef b1 e3 3d 92 67 40 3d 52 c1 64 3d
       -0.031453323 0.111179225 0.046973772 0.055848427
000300 59 19 93 bd d2 b9 db bc cb d0 d8 ba ae 93 d0 3d
       -0.07182569 -0.026822004 -0.0016541717 0.10184418
000310 e4 8d 7e 3d ca a1 df bc c3 d5 aa 3d fe 90 c5 bd
       0.062147036 -0.027298827 0.08341553 -0.09646796
000320 fc e8 88 bd 2a b7 ed bd 5f 7d 66 bd 8c bc 6d 3d
       -0.06685063 -0.116072014 -0.056271907 0.05804114
000330 d8 96 0c bd 0e c8 9f bc a4 83 c9 3c 13 30 8c 3c
       -0.034323543 -0.019504573 0.024598904 0.017112767
000340 34 20 01 bd 96 ad 28 3d 1e 9e 99 3d 5b de 3d 3d
       -0.031524852 0.04118117 0.075008616 0.046354633
000350 8a d4 56 3c f5 e0 49 bd 6b 65 9a bd 1d 27 8a bc
       0.013112197 -0.0492868 -0.07538875 -0.016864354
000360 dc c9 61 3d b5 6c 6c 3d f3 bc 08 3e 32 48 e1 3d
       0.05512415 0.05772086 0.13353328 0.11000098
000370 16 07 ac bd 54 f8 9b bd c1 57 a1 3b 85 ab 4e 3c
       -0.08399789 -0.07615724 0.004923791 0.012614136
000380 c7 2c fd 3d d7 17 94 bd 4f 54 64 3c a1 1d 3c bc
       0.12362056 -0.072311096 0.013936116 -0.011481673
000390 f8 ef b5 3d c3 b0 06 3d b0 0c 25 bc dd d1 db 3c
       0.08883661 0.032883417 -0.010073826 0.026833469
0003a0 44 4a 83 bc 5b de 16 3d e7 92 14 be 5b a3 4b 3d
       -0.016026624 0.03683315 -0.14509164 0.049716335
0003b0 72 90 31 3d 96 9d 00 be 49 b6 02 3e 09 6a 49 3d
       0.043350644 -0.12560114 0.12764849 0.04917339
0003c0 4e 8b 99 bc 37 7f 5b ba f3 5f d9 3d 85 04 8a 3c
       -0.018743183 -0.00083731435 0.10614004 0.016847858
0003d0 f4 00 01 3d 0b 75 bb 3d 95 e0 e3 3a a5 c6 30 bd
       0.03149505 0.091531835 0.0017385656 -0.043158192
0003e0 e0 c7 1c bd b1 54 00 3d d5 78 a6 bb e0 a4 0c be
       -0.038276553 0.031330768 -0.0050803223 -0.1373477
0003f0 19 62 04 be b2 de 9a bd 49 fd a4 bd 1a cb b2 bb
       -0.12928046 -0.07562007 -0.08056123 -0.0054563405

lstm.bias_ih_l1 f4 [256]
000000 fb 1f 20 3d 60 05 bf bd 51 5d 65 3d c3 b6 c3 bd
       0.039093 -0.09327197 0.055997197 -0.095563434
000010 35 0b 09 3d 6e 0c a8 bb 7c 30 d4 bd c1 c6 7a 3d
       0.033457953 -0.005128435 -0.1036081 0.061224703
000020 a4 d6 bd bd 50 4f b8 bd 6b 50 e4 3d 49 bc 9e bc
       -0.09269455 -0.08999503 0.11148151 -0.01937689
000030 c0 e0 b8 bd 0c 9c d7 bd 64 f8 66 3c 61 2a 82 bd
       -0.09027243 -0.105278105 0.014097307 -0.063557394
000040 b6 8b e9 3d a2 ae 4f 3d 62 63 9e bd 28 ad 0a 3d
       0.11403601 0.050703652 -0.077337995 0.03385654
000050 fd 6d b4 bd 4b 39 a9 3d f1 23 d4 3c 95 46 ce 3d
       -0.08810041 0.08262881 0.025896044 0.10072056
000060 c4 fa d9 3c 5e 0a 04 be 7f b5 77 bd 78 05 9b bc
       0.026608832 -0.1289458 -0.060475823 -0.018923506
000070 58 15 75 bd a8 c9 44 3d 7b 09 ca 3d 1c f8 99 3b
       -0.059834808 0.048043877 0.098650895 0.0046987664
000080 d2 68 eb 3d 57 44 55 3c 00 36 b8 3d c9 05 c2 bd
       0.11494602 0.013016782 0.08994675 -0.0947376
000090 77 da bc bd d4 a5 94 3d f2 44 c5 bd 4a 7c 11 3d
       -0.09221356 0.07258192 -0.09632291 0.035518922
0000a0 93 8d b4 bd c9 a4 8a 3b 23 9c 9b 3c 9b ce a8 3c
       -0.08816066 0.0042310697 0.01899535 0.02060633
0000b0 5e 6f 00 3e 0a 6d ec 3d b2 a9 51 bd 97 10 8a bc
       0.12542483 0.11544235 -0.051187225 -0.016853614
0000c0 9d 60 cf bd 4c c9 b0 3d 57 0b 69 bd 95 db a5 bd
       -0.101258494 0.08632144 -0.05689558 -0.080985226
0000d0 5a c5 a4 3d ff 38 7a bd ce 83 7d bd cb ca 3a 3d
       0.08045454 -0.061089512 -0.061893277 0.045603555
0000e0 e6 ee b2 bd 6a 2f 5c bd cf c7 b6 bb 8e 18 f2 3c
       -0.087369725 -0.053756155 -0.0055780183 0.029552724
0000f0 e2 0f 51 3d 2d 4e 92 bd 8c a9 c1 3d d5 d7 1e 3d
       0.051040538 -0.07143817 0.094561666 0.038780052
000100 b6 ed 51 bd 31 1a f1 3d 9f ba 26 3e ce 8b 19 bb
       -0.05125209 0.11772574 0.16282128 -0.0023429277
000110 25 6e 58 3c 05 ae c8 bb 1a 16 98 3d 7a 06 c2 3d
       0.013209854 -0.0061242604 0.074260905 0.094738916
000120 dd 5d be bc 7f 1e c1 3d 3c 6d c3 3c 59 3d 84 3c
       -0.023238117 0.09429645 0.023855798 0.016142534
000130 6f 7f 81 bc 44 19 a0 bd 4f e5 3c bc 45 da a8 3d
       -0.015807835 -0.07817319 -0.011529281 0.082447566
000140 4c 8e 8a bd f8 cc 28 3d 2e 74 ea 3d 16 10 72 bc
       -0.06765422 0.0412111 0.11447941 -0.014774343
000150 9e f0 1d 3d b9 92 33 3d 15 7e 84 3d 6b 62 a7 bd
       0.03855955 0.043841098 0.06469361 -0.081730686
000160 e0 98 b6 3d e5 37 d7 bd 16 de 91 3b 0f 3e 87 3d
       0.08915877 -0.10508708 0.0044515235 0.066036336
000170 fe 5f 4c 3d eb 90 98 bd dd d8 14 bc 46 da 91 bd
       0.049896233 -0.07449516 -0.009084907 -0.071217105
000180 20 2f db bc e3 8f e4 3d aa 58 0f 3e 3b a5 7a 3d
       -0.02675587 0.11160257 0.13998666 0.061192732
000190 a3 cc e4 3d 1b d0 87 3d bf 36 0b 3c 71 f2 e9 3d
       0.11171844 0.0663149 0.008496939 0.11423195
0001a0 cc 4d 82 3b 89 80 92 bd a4 fd 45 bc 15 14 70 3d
       0.0039765593 -0.071534224 -0.012084398 0.0586129
0001b0 66 60 a7 3d 8a bc 21 3e 00 84 e8 bc c8 f8 96 3d
       0.081726834 0.15794578 -0.028383255 0.0737167
0001c0 d1 a0 9d bd 98 93 95 bc 0e 0e 23 bc b7 7f f2 3d
       -0.07696689 -0.018258855 -0.009952081 0.11840766
0001d0 81 04 46 bc ef 4e d2 bd 2f 90 02 be 8e 39 29 bc
       -0.012086035 -0.10268962 -0.12750314 -0.0103286635
0001e0 21 b9 a6 bd b6 f6 2e 3d 9f a1 b0 3d 45 b3 43 bc
       -0.08140779 0.04271575 0.08624577 -0.011944597
0001f0 34 f9 a2 3d f7 13 1a 3e 99 31 e6 3d ff af ca 3b
       0.07957688 0.15046678 0.11239929 0.006185531
000200 50 90 26 3d 93 2a 56 bd a6 1f d4 3d dd bd 01 3e
       0.04066497 -0.052286696 0.10357599 0.12670083
000210 ca c7 1d 3d 62 c4 e7 bd ad ab ca bc c5 85 17 3d
       0.03852061 -0.11316754 -0.024740065 0.036992807
000220 13 d8 cf 3d cc a6 d1 3d 96 4b e4 bd f9 62 d9 3d
       0.10148635 0.10236892 -0.111472294 0.10614581
000230 5f 19 05 be 3a d0 b4 bd 78 ae f0 bd c6 36 26 3c
       -0.1299796 -0.088287786 -0.11752027 0.010144895
000240 9d d4 7f bd 64 ff 44 3d f6 b9 71 bd c2 a7 01 bd
       -0.062458623 0.048095122 -0.059015237 -0.031654127
000250 41 4a 29 3d a8 58 cc 3d 8b c6 38 3a 1a 87 a8 3d
       0.04133058 0.09977847 0.0007048628 0.082288936
000260 23 e3 39 bd 3e 07 ae 3d 43 5f c0 3d cc db bc 3d
       -0.04538263 0.08497475 0.0939317 0.092216104
000270 e2 43 aa bd 83 ea cd bd 19 bf 9a bd 49 75 9f bd
       -0.08313729 -0.10054495 -0.0755598 -0.07786042
000280 67 21 8d bd 15 b4 a0 bd 18 f1 8d 3c 60 fc de bc
       -0.068911366 -0.07846848 0.017326877 -0.027219951
000290 40 00 fb 3d 86 d9 0f 3d 45 69 cc bc 6a 20 f0 3d
       0.12255907 0.035119556 -0.02495254 0.117249325
0002a0 48 51 3e bd 30 c9 82 3d 0b 93 76 3d 5d be d4 3d
       -0.046464235 0.0638603 0.060198825 0.103878714
0002b0 c2 d9 e6 3c d1 73 0c bb 28 fc af 3d 5a 4a 1a bd
       0.028180007 -0.0021431337 0.08593017 -0.037668563
0002c0 71 5d f5 3d 96 2e fd bd a4 d3 9a bc 50 6f af 3d
       0.11980713 -0.12362401 -0.018899746 0.08566153
0002d0 ae 48 e6 3d a4 66 ef bd 2e f8 8d 3d 69 ef c8 bd
       0.11244331 -0.11689499 0.06932102 -0.09811289
0002e0 b0 a6 07 3e b4 94 c3 3d c1 bb 3a 3c f1 a7 37 bc
       0.1324718 0.09549847 0.011397303 -0.011209474
0002f0 d0 2e c8 3b 98 47 33 bd 02 1f bd 3d 5d e3 0d 3d
       0.006109096 -0.04376945 0.0923443 0.03464066
000300 cf f5 0f bd c6 ca dc 3d 4e 6f b5 bc 2e 1e 92 3c
       -0.03514653 0.107808635 -0.0221478 0.017836656
000310 00 2a c0 3d 44 61 42 3d e7 ec 6f bd 81 a8 a2 bc
       0.09383011 0.04745604 -0.058575537 -0.01985574
000320 4d fd cb 3a 0e e1 4e bd 3f 7e b0 bd 38 ad 18 3e
       0.001556316 -0.050507598 -0.086178295 0.14909828
000330 ad 0b c0 bd 3c 03 82 3d c8 14 ab 3d 0f b4 09 bd
       -0.09377227 0.06348273 0.08353573 -0.033618983
000340 2d 29 51 bd dd 4b b1 bd b8 77 73 3d 7e 52 c5 bd
       -0.05106466 -0.08657048 0.059440345 -0.09634875
000350 8f 4b 24 3c d3 6c 7d bd 22 0a bf bd 0f da cd 3d
       0.01002778 -0.06187136 -0.093281046 0.10051357
000360 1c 3d c6 bc 5a eb 94 bd 7f 99 db bd b8 10 a3 bd
       -0.024199061 -0.07271452 -0.107226364 -0.07962173
000370 d3 00 c2 3c 52 5c 86 3c 25 60 b2 3d 74 ad 89 3d
       0.023682034 0.016401444 0.08709744 0.06722537
000380 d2 dd 41 bd 6e 54 92 3d 4e dc f2 bb 7a a3 89 bd
       -0.047330685 0.0714501 -0.0074115163 -0.06720634
000390 01 c4 17 bd d8 5e 4d bd c6 cd 26 bd a0 f3 e4 3c
       -0.03705216 -0.05013928 -0.040723585 0.0279482
0003a0 e8 0b b3 3d 00 19 1d bd d4 16 03 3e 6d ad dd 3d
       0.08742505 -0.03835392 0.12801677 0.10824094
0003b0 ff 75 f2 3c 9f 7f 05 bd 46 6c da bd 38 37 82 bc
       0.02959728 -0.032592412 -0.10665183 -0.015895471
0003c0 65 f7 e6 3d 86 0b e7 3c 76 15 15 3c df 17 9e bd
       0.112776555 0.028203737 0.009099355 -0.07719397
0003d0 e1 72 c7 bd 48 05 e8 bd f8 29 08 3d d0 f7 c3 3d
       -0.09738708 -0.11329132 0.03324315 0.09568751
0003e0 80 9a 35 3d 77 98 1a be 37 c2 83 bc 87 44 e1 3d
       0.044336796 -0.15097223 -0.01608382 0.10999399
0003f0 47 83 09 be 1b 9e c5 3d 9b f1 e7 bd 70 68 8e bd
       -0.13428985 0.09649297 -0.113253795 -0.069535136
